WARNING: Logging before InitGoogleLogging() is written to STDERR
I1128 14:26:21.755300 11324 net.cpp:51] Initializing net from parameters: 
state {
  phase: TEST
  level: 0
}
layer {
  name: "data"
  type: "Input"
  top: "data"
  input_param {
    shape {
      dim: 10
      dim: 3
      dim: 227
      dim: 227
    }
  }
}
layer {
  name: "conv1"
  type: "Convolution"
  bottom: "data"
  top: "conv1"
  convolution_param {
    num_output: 64
    kernel_size: 3
    stride: 2
    weight_filler {
      type: "xavier"
    }
  }
}
layer {
  name: "relu_conv1"
  type: "ReLU"
  bottom: "conv1"
  top: "conv1"
}
layer {
  name: "pool1"
  type: "Pooling"
  bottom: "conv1"
  top: "pool1"
  pooling_param {
    pool: MAX
    kernel_size: 3
    stride: 2
  }
}
layer {
  name: "fire2/squeeze1x1"
  type: "Convolution"
  bottom: "pool1"
  top: "fire2/squeeze1x1"
  convolution_param {
    num_output: 16
    kernel_size: 1
    weight_filler {
      type: "xavier"
    }
  }
}
layer {
  name: "fire2/relu_squeeze1x1"
  type: "ReLU"
  bottom: "fire2/squeeze1x1"
  top: "fire2/squeeze1x1"
}
layer {
  name: "fire2/expand1x1"
  type: "Convolution"
  bottom: "fire2/squeeze1x1"
  top: "fire2/expand1x1"
  convolution_param {
    num_output: 64
    kernel_size: 1
    weight_filler {
      type: "xavier"
    }
  }
}
layer {
  name: "fire2/relu_expand1x1"
  type: "ReLU"
  bottom: "fire2/expand1x1"
  top: "fire2/expand1x1"
}
layer {
  name: "fire2/expand3x3"
  type: "Convolution"
  bottom: "fire2/squeeze1x1"
  top: "fire2/expand3x3"
  convolution_param {
    num_output: 64
    pad: 1
    kernel_size: 3
    weight_filler {
      type: "xavier"
    }
  }
}
layer {
  name: "fire2/relu_expand3x3"
  type: "ReLU"
  bottom: "fire2/expand3x3"
  top: "fire2/expand3x3"
}
layer {
  name: "fire2/concat"
  type: "Concat"
  bottom: "fire2/expand1x1"
  bottom: "fire2/expand3x3"
  top: "fire2/concat"
}
layer {
  name: "fire3/squeeze1x1"
  type: "Convolution"
  bottom: "fire2/concat"
  top: "fire3/squeeze1x1"
  convolution_param {
    num_output: 16
    kernel_size: 1
    weight_filler {
      type: "xavier"
    }
  }
}
layer {
  name: "fire3/relu_squeeze1x1"
  type: "ReLU"
  bottom: "fire3/squeeze1x1"
  top: "fire3/squeeze1x1"
}
layer {
  name: "fire3/expand1x1"
  type: "Convolution"
  bottom: "fire3/squeeze1x1"
  top: "fire3/expand1x1"
  convolution_param {
    num_output: 64
    kernel_size: 1
    weight_filler {
      type: "xavier"
    }
  }
}
layer {
  name: "fire3/relu_expand1x1"
  type: "ReLU"
  bottom: "fire3/expand1x1"
  top: "fire3/expand1x1"
}
layer {
  name: "fire3/expand3x3"
  type: "Convolution"
  bottom: "fire3/squeeze1x1"
  top: "fire3/expand3x3"
  convolution_param {
    num_output: 64
    pad: 1
    kernel_size: 3
    weight_filler {
      type: "xavier"
    }
  }
}
layer {
  name: "fire3/relu_expand3x3"
  type: "ReLU"
  bottom: "fire3/expand3x3"
  top: "fire3/expand3x3"
}
layer {
  name: "fire3/concat"
  type: "Concat"
  bottom: "fire3/expand1x1"
  bottom: "fire3/expand3x3"
  top: "fire3/concat"
}
layer {
  name: "pool3"
  type: "Pooling"
  bottom: "fire3/concat"
  top: "pool3"
  pooling_param {
    pool: MAX
    kernel_size: 3
    stride: 2
  }
}
layer {
  name: "fire4/squeeze1x1"
  type: "Convolution"
  bottom: "pool3"
  top: "fire4/squeeze1x1"
  convolution_param {
    num_output: 32
    kernel_size: 1
    weight_filler {
      type: "xavier"
    }
  }
}
layer {
  name: "fire4/relu_squeeze1x1"
  type: "ReLU"
  bottom: "fire4/squeeze1x1"
  top: "fire4/squeeze1x1"
}
layer {
  name: "fire4/expand1x1"
  type: "Convolution"
  bottom: "fire4/squeeze1x1"
  top: "fire4/expand1x1"
  convolution_param {
    num_output: 128
    kernel_size: 1
    weight_filler {
      type: "xavier"
    }
  }
}
layer {
  name: "fire4/relu_expand1x1"
  type: "ReLU"
  bottom: "fire4/expand1x1"
  top: "fire4/expand1x1"
}
layer {
  name: "fire4/expand3x3"
  type: "Convolution"
  bottom: "fire4/squeeze1x1"
  top: "fire4/expand3x3"
  convolution_param {
    num_output: 128
    pad: 1
    kernel_size: 3
    weight_filler {
      type: "xavier"
    }
  }
}
layer {
  name: "fire4/relu_expand3x3"
  type: "ReLU"
  bottom: "fire4/expand3x3"
  top: "fire4/expand3x3"
}
layer {
  name: "fire4/concat"
  type: "Concat"
  bottom: "fire4/expand1x1"
  bottom: "fire4/expand3x3"
  top: "fire4/concat"
}
layer {
  name: "fire5/squeeze1x1"
  type: "Convolution"
  bottom: "fire4/concat"
  top: "fire5/squeeze1x1"
  convolution_param {
    num_output: 32
    kernel_size: 1
    weight_filler {
      type: "xavier"
    }
  }
}
layer {
  name: "fire5/relu_squeeze1x1"
  type: "ReLU"
  bottom: "fire5/squeeze1x1"
  top: "fire5/squeeze1x1"
}
layer {
  name: "fire5/expand1x1"
  type: "Convolution"
  bottom: "fire5/squeeze1x1"
  top: "fire5/expand1x1"
  convolution_param {
    num_output: 128
    kernel_size: 1
    weight_filler {
      type: "xavier"
    }
  }
}
layer {
  name: "fire5/relu_expand1x1"
  type: "ReLU"
  bottom: "fire5/expand1x1"
  top: "fire5/expand1x1"
}
layer {
  name: "fire5/expand3x3"
  type: "Convolution"
  bottom: "fire5/squeeze1x1"
  top: "fire5/expand3x3"
  convolution_param {
    num_output: 128
    pad: 1
    kernel_size: 3
    weight_filler {
      type: "xavier"
    }
  }
}
layer {
  name: "fire5/relu_expand3x3"
  type: "ReLU"
  bottom: "fire5/expand3x3"
  top: "fire5/expand3x3"
}
layer {
  name: "fire5/concat"
  type: "Concat"
  bottom: "fire5/expand1x1"
  bottom: "fire5/expand3x3"
  top: "fire5/concat"
}
layer {
  name: "pool5"
  type: "Pooling"
  bottom: "fire5/concat"
  top: "pool5"
  pooling_param {
    pool: MAX
    kernel_size: 3
    stride: 2
  }
}
layer {
  name: "fire6/squeeze1x1"
  type: "Convolution"
  bottom: "pool5"
  top: "fire6/squeeze1x1"
  convolution_param {
    num_output: 48
    kernel_size: 1
    weight_filler {
      type: "xavier"
    }
  }
}
layer {
  name: "fire6/relu_squeeze1x1"
  type: "ReLU"
  bottom: "fire6/squeeze1x1"
  top: "fire6/squeeze1x1"
}
layer {
  name: "fire6/expand1x1"
  type: "Convolution"
  bottom: "fire6/squeeze1x1"
  top: "fire6/expand1x1"
  convolution_param {
    num_output: 192
    kernel_size: 1
    weight_filler {
      type: "xavier"
    }
  }
}
layer {
  name: "fire6/relu_expand1x1"
  type: "ReLU"
  bottom: "fire6/expand1x1"
  top: "fire6/expand1x1"
}
layer {
  name: "fire6/expand3x3"
  type: "Convolution"
  bottom: "fire6/squeeze1x1"
  top: "fire6/expand3x3"
  convolution_param {
    num_output: 192
    pad: 1
    kernel_size: 3
    weight_filler {
      type: "xavier"
    }
  }
}
layer {
  name: "fire6/relu_expand3x3"
  type: "ReLU"
  bottom: "fire6/expand3x3"
  top: "fire6/expand3x3"
}
layer {
  name: "fire6/concat"
  type: "Concat"
  bottom: "fire6/expand1x1"
  bottom: "fire6/expand3x3"
  top: "fire6/concat"
}
layer {
  name: "fire7/squeeze1x1"
  type: "Convolution"
  bottom: "fire6/concat"
  top: "fire7/squeeze1x1"
  convolution_param {
    num_output: 48
    kernel_size: 1
    weight_filler {
      type: "xavier"
    }
  }
}
layer {
  name: "fire7/relu_squeeze1x1"
  type: "ReLU"
  bottom: "fire7/squeeze1x1"
  top: "fire7/squeeze1x1"
}
layer {
  name: "fire7/expand1x1"
  type: "Convolution"
  bottom: "fire7/squeeze1x1"
  top: "fire7/expand1x1"
  convolution_param {
    num_output: 192
    kernel_size: 1
    weight_filler {
      type: "xavier"
    }
  }
}
layer {
  name: "fire7/relu_expand1x1"
  type: "ReLU"
  bottom: "fire7/expand1x1"
  top: "fire7/expand1x1"
}
layer {
  name: "fire7/expand3x3"
  type: "Convolution"
  bottom: "fire7/squeeze1x1"
  top: "fire7/expand3x3"
  convolution_param {
    num_output: 192
    pad: 1
    kernel_size: 3
    weight_filler {
      type: "xavier"
    }
  }
}
layer {
  name: "fire7/relu_expand3x3"
  type: "ReLU"
  bottom: "fire7/expand3x3"
  top: "fire7/expand3x3"
}
layer {
  name: "fire7/concat"
  type: "Concat"
  bottom: "fire7/expand1x1"
  bottom: "fire7/expand3x3"
  top: "fire7/concat"
}
layer {
  name: "fire8/squeeze1x1"
  type: "Convolution"
  bottom: "fire7/concat"
  top: "fire8/squeeze1x1"
  convolution_param {
    num_output: 64
    kernel_size: 1
    weight_filler {
      type: "xavier"
    }
  }
}
layer {
  name: "fire8/relu_squeeze1x1"
  type: "ReLU"
  bottom: "fire8/squeeze1x1"
  top: "fire8/squeeze1x1"
}
layer {
  name: "fire8/expand1x1"
  type: "Convolution"
  bottom: "fire8/squeeze1x1"
  top: "fire8/expand1x1"
  convolution_param {
    num_output: 256
    kernel_size: 1
    weight_filler {
      type: "xavier"
    }
  }
}
layer {
  name: "fire8/relu_expand1x1"
  type: "ReLU"
  bottom: "fire8/expand1x1"
  top: "fire8/expand1x1"
}
layer {
  name: "fire8/expand3x3"
  type: "Convolution"
  bottom: "fire8/squeeze1x1"
  top: "fire8/expand3x3"
  convolution_param {
    num_output: 256
    pad: 1
    kernel_size: 3
    weight_filler {
      type: "xavier"
    }
  }
}
layer {
  name: "fire8/relu_expand3x3"
  type: "ReLU"
  bottom: "fire8/expand3x3"
  top: "fire8/expand3x3"
}
layer {
  name: "fire8/concat"
  type: "Concat"
  bottom: "fire8/expand1x1"
  bottom: "fire8/expand3x3"
  top: "fire8/concat"
}
layer {
  name: "fire9/squeeze1x1"
  type: "Convolution"
  bottom: "fire8/concat"
  top: "fire9/squeeze1x1"
  convolution_param {
    num_output: 64
    kernel_size: 1
    weight_filler {
      type: "xavier"
    }
  }
}
layer {
  name: "fire9/relu_squeeze1x1"
  type: "ReLU"
  bottom: "fire9/squeeze1x1"
  top: "fire9/squeeze1x1"
}
layer {
  name: "fire9/expand1x1"
  type: "Convolution"
  bottom: "fire9/squeeze1x1"
  top: "fire9/expand1x1"
  convolution_param {
    num_output: 256
    kernel_size: 1
    weight_filler {
      type: "xavier"
    }
  }
}
layer {
  name: "fire9/relu_expand1x1"
  type: "ReLU"
  bottom: "fire9/expand1x1"
  top: "fire9/expand1x1"
}
layer {
  name: "fire9/expand3x3"
  type: "Convolution"
  bottom: "fire9/squeeze1x1"
  top: "fire9/expand3x3"
  convolution_param {
    num_output: 256
    pad: 1
    kernel_size: 3
    weight_filler {
      type: "xavier"
    }
  }
}
layer {
  name: "fire9/relu_expand3x3"
  type: "ReLU"
  bottom: "fire9/expand3x3"
  top: "fire9/expand3x3"
}
layer {
  name: "fire9/concat"
  type: "Concat"
  bottom: "fire9/expand1x1"
  bottom: "fire9/expand3x3"
  top: "fire9/concat"
}
layer {
  name: "drop9"
  type: "Dropout"
  bottom: "fire9/concat"
  top: "fire9/concat"
  dropout_param {
    dropout_ratio: 0.5
  }
}
layer {
  name: "conv10"
  type: "Convolution"
  bottom: "fire9/concat"
  top: "conv10"
  convolution_param {
    num_output: 4
    kernel_size: 1
    weight_filler {
      type: "gaussian"
      mean: 0
      std: 0.01
    }
  }
}
layer {
  name: "relu_conv10"
  type: "ReLU"
  bottom: "conv10"
  top: "conv10"
}
layer {
  name: "pool10"
  type: "Pooling"
  bottom: "conv10"
  top: "pool10"
  pooling_param {
    pool: AVE
    global_pooling: true
  }
}
layer {
  name: "prob"
  type: "Softmax"
  bottom: "pool10"
  top: "prob"
}
I1128 14:26:21.755705 11324 layer_factory.hpp:77] Creating layer data
I1128 14:26:21.755729 11324 net.cpp:84] Creating Layer data
I1128 14:26:21.755738 11324 net.cpp:380] data -> data
I1128 14:26:21.755767 11324 net.cpp:122] Setting up data
I1128 14:26:21.755776 11324 net.cpp:129] Top shape: 10 3 227 227 (1545870)
I1128 14:26:21.755780 11324 net.cpp:137] Memory required for data: 6183480
I1128 14:26:21.755784 11324 layer_factory.hpp:77] Creating layer conv1
I1128 14:26:21.755800 11324 net.cpp:84] Creating Layer conv1
I1128 14:26:21.755805 11324 net.cpp:406] conv1 <- data
I1128 14:26:21.755811 11324 net.cpp:380] conv1 -> conv1
I1128 14:26:21.756300 11324 net.cpp:122] Setting up conv1
I1128 14:26:21.756311 11324 net.cpp:129] Top shape: 10 64 113 113 (8172160)
I1128 14:26:21.756315 11324 net.cpp:137] Memory required for data: 38872120
I1128 14:26:21.756328 11324 layer_factory.hpp:77] Creating layer relu_conv1
I1128 14:26:21.756342 11324 net.cpp:84] Creating Layer relu_conv1
I1128 14:26:21.756347 11324 net.cpp:406] relu_conv1 <- conv1
I1128 14:26:21.756352 11324 net.cpp:367] relu_conv1 -> conv1 (in-place)
I1128 14:26:21.756362 11324 net.cpp:122] Setting up relu_conv1
I1128 14:26:21.756386 11324 net.cpp:129] Top shape: 10 64 113 113 (8172160)
I1128 14:26:21.756393 11324 net.cpp:137] Memory required for data: 71560760
I1128 14:26:21.756397 11324 layer_factory.hpp:77] Creating layer pool1
I1128 14:26:21.756404 11324 net.cpp:84] Creating Layer pool1
I1128 14:26:21.756408 11324 net.cpp:406] pool1 <- conv1
I1128 14:26:21.756428 11324 net.cpp:380] pool1 -> pool1
I1128 14:26:21.756443 11324 net.cpp:122] Setting up pool1
I1128 14:26:21.756449 11324 net.cpp:129] Top shape: 10 64 56 56 (2007040)
I1128 14:26:21.756453 11324 net.cpp:137] Memory required for data: 79588920
I1128 14:26:21.756456 11324 layer_factory.hpp:77] Creating layer fire2/squeeze1x1
I1128 14:26:21.756464 11324 net.cpp:84] Creating Layer fire2/squeeze1x1
I1128 14:26:21.756469 11324 net.cpp:406] fire2/squeeze1x1 <- pool1
I1128 14:26:21.756474 11324 net.cpp:380] fire2/squeeze1x1 -> fire2/squeeze1x1
I1128 14:26:21.756510 11324 net.cpp:122] Setting up fire2/squeeze1x1
I1128 14:26:21.756517 11324 net.cpp:129] Top shape: 10 16 56 56 (501760)
I1128 14:26:21.756520 11324 net.cpp:137] Memory required for data: 81595960
I1128 14:26:21.756528 11324 layer_factory.hpp:77] Creating layer fire2/relu_squeeze1x1
I1128 14:26:21.756533 11324 net.cpp:84] Creating Layer fire2/relu_squeeze1x1
I1128 14:26:21.756537 11324 net.cpp:406] fire2/relu_squeeze1x1 <- fire2/squeeze1x1
I1128 14:26:21.756546 11324 net.cpp:367] fire2/relu_squeeze1x1 -> fire2/squeeze1x1 (in-place)
I1128 14:26:21.756551 11324 net.cpp:122] Setting up fire2/relu_squeeze1x1
I1128 14:26:21.756556 11324 net.cpp:129] Top shape: 10 16 56 56 (501760)
I1128 14:26:21.756559 11324 net.cpp:137] Memory required for data: 83603000
I1128 14:26:21.756562 11324 layer_factory.hpp:77] Creating layer fire2/squeeze1x1_fire2/relu_squeeze1x1_0_split
I1128 14:26:21.756570 11324 net.cpp:84] Creating Layer fire2/squeeze1x1_fire2/relu_squeeze1x1_0_split
I1128 14:26:21.756574 11324 net.cpp:406] fire2/squeeze1x1_fire2/relu_squeeze1x1_0_split <- fire2/squeeze1x1
I1128 14:26:21.756579 11324 net.cpp:380] fire2/squeeze1x1_fire2/relu_squeeze1x1_0_split -> fire2/squeeze1x1_fire2/relu_squeeze1x1_0_split_0
I1128 14:26:21.756587 11324 net.cpp:380] fire2/squeeze1x1_fire2/relu_squeeze1x1_0_split -> fire2/squeeze1x1_fire2/relu_squeeze1x1_0_split_1
I1128 14:26:21.756594 11324 net.cpp:122] Setting up fire2/squeeze1x1_fire2/relu_squeeze1x1_0_split
I1128 14:26:21.756599 11324 net.cpp:129] Top shape: 10 16 56 56 (501760)
I1128 14:26:21.756604 11324 net.cpp:129] Top shape: 10 16 56 56 (501760)
I1128 14:26:21.756608 11324 net.cpp:137] Memory required for data: 87617080
I1128 14:26:21.756611 11324 layer_factory.hpp:77] Creating layer fire2/expand1x1
I1128 14:26:21.756620 11324 net.cpp:84] Creating Layer fire2/expand1x1
I1128 14:26:21.756624 11324 net.cpp:406] fire2/expand1x1 <- fire2/squeeze1x1_fire2/relu_squeeze1x1_0_split_0
I1128 14:26:21.756629 11324 net.cpp:380] fire2/expand1x1 -> fire2/expand1x1
I1128 14:26:21.756661 11324 net.cpp:122] Setting up fire2/expand1x1
I1128 14:26:21.756667 11324 net.cpp:129] Top shape: 10 64 56 56 (2007040)
I1128 14:26:21.756670 11324 net.cpp:137] Memory required for data: 95645240
I1128 14:26:21.756678 11324 layer_factory.hpp:77] Creating layer fire2/relu_expand1x1
I1128 14:26:21.756685 11324 net.cpp:84] Creating Layer fire2/relu_expand1x1
I1128 14:26:21.756688 11324 net.cpp:406] fire2/relu_expand1x1 <- fire2/expand1x1
I1128 14:26:21.756693 11324 net.cpp:367] fire2/relu_expand1x1 -> fire2/expand1x1 (in-place)
I1128 14:26:21.756700 11324 net.cpp:122] Setting up fire2/relu_expand1x1
I1128 14:26:21.756703 11324 net.cpp:129] Top shape: 10 64 56 56 (2007040)
I1128 14:26:21.756707 11324 net.cpp:137] Memory required for data: 103673400
I1128 14:26:21.756711 11324 layer_factory.hpp:77] Creating layer fire2/expand3x3
I1128 14:26:21.756719 11324 net.cpp:84] Creating Layer fire2/expand3x3
I1128 14:26:21.756723 11324 net.cpp:406] fire2/expand3x3 <- fire2/squeeze1x1_fire2/relu_squeeze1x1_0_split_1
I1128 14:26:21.756731 11324 net.cpp:380] fire2/expand3x3 -> fire2/expand3x3
I1128 14:26:21.756826 11324 net.cpp:122] Setting up fire2/expand3x3
I1128 14:26:21.756832 11324 net.cpp:129] Top shape: 10 64 56 56 (2007040)
I1128 14:26:21.756835 11324 net.cpp:137] Memory required for data: 111701560
I1128 14:26:21.756841 11324 layer_factory.hpp:77] Creating layer fire2/relu_expand3x3
I1128 14:26:21.756846 11324 net.cpp:84] Creating Layer fire2/relu_expand3x3
I1128 14:26:21.756856 11324 net.cpp:406] fire2/relu_expand3x3 <- fire2/expand3x3
I1128 14:26:21.756861 11324 net.cpp:367] fire2/relu_expand3x3 -> fire2/expand3x3 (in-place)
I1128 14:26:21.756867 11324 net.cpp:122] Setting up fire2/relu_expand3x3
I1128 14:26:21.756872 11324 net.cpp:129] Top shape: 10 64 56 56 (2007040)
I1128 14:26:21.756875 11324 net.cpp:137] Memory required for data: 119729720
I1128 14:26:21.756880 11324 layer_factory.hpp:77] Creating layer fire2/concat
I1128 14:26:21.756886 11324 net.cpp:84] Creating Layer fire2/concat
I1128 14:26:21.756891 11324 net.cpp:406] fire2/concat <- fire2/expand1x1
I1128 14:26:21.756894 11324 net.cpp:406] fire2/concat <- fire2/expand3x3
I1128 14:26:21.756901 11324 net.cpp:380] fire2/concat -> fire2/concat
I1128 14:26:21.756912 11324 net.cpp:122] Setting up fire2/concat
I1128 14:26:21.756918 11324 net.cpp:129] Top shape: 10 128 56 56 (4014080)
I1128 14:26:21.756922 11324 net.cpp:137] Memory required for data: 135786040
I1128 14:26:21.756924 11324 layer_factory.hpp:77] Creating layer fire3/squeeze1x1
I1128 14:26:21.756932 11324 net.cpp:84] Creating Layer fire3/squeeze1x1
I1128 14:26:21.756937 11324 net.cpp:406] fire3/squeeze1x1 <- fire2/concat
I1128 14:26:21.756942 11324 net.cpp:380] fire3/squeeze1x1 -> fire3/squeeze1x1
I1128 14:26:21.756983 11324 net.cpp:122] Setting up fire3/squeeze1x1
I1128 14:26:21.756989 11324 net.cpp:129] Top shape: 10 16 56 56 (501760)
I1128 14:26:21.756992 11324 net.cpp:137] Memory required for data: 137793080
I1128 14:26:21.757000 11324 layer_factory.hpp:77] Creating layer fire3/relu_squeeze1x1
I1128 14:26:21.757007 11324 net.cpp:84] Creating Layer fire3/relu_squeeze1x1
I1128 14:26:21.757011 11324 net.cpp:406] fire3/relu_squeeze1x1 <- fire3/squeeze1x1
I1128 14:26:21.757016 11324 net.cpp:367] fire3/relu_squeeze1x1 -> fire3/squeeze1x1 (in-place)
I1128 14:26:21.757021 11324 net.cpp:122] Setting up fire3/relu_squeeze1x1
I1128 14:26:21.757026 11324 net.cpp:129] Top shape: 10 16 56 56 (501760)
I1128 14:26:21.757030 11324 net.cpp:137] Memory required for data: 139800120
I1128 14:26:21.757033 11324 layer_factory.hpp:77] Creating layer fire3/squeeze1x1_fire3/relu_squeeze1x1_0_split
I1128 14:26:21.757037 11324 net.cpp:84] Creating Layer fire3/squeeze1x1_fire3/relu_squeeze1x1_0_split
I1128 14:26:21.757041 11324 net.cpp:406] fire3/squeeze1x1_fire3/relu_squeeze1x1_0_split <- fire3/squeeze1x1
I1128 14:26:21.757046 11324 net.cpp:380] fire3/squeeze1x1_fire3/relu_squeeze1x1_0_split -> fire3/squeeze1x1_fire3/relu_squeeze1x1_0_split_0
I1128 14:26:21.757052 11324 net.cpp:380] fire3/squeeze1x1_fire3/relu_squeeze1x1_0_split -> fire3/squeeze1x1_fire3/relu_squeeze1x1_0_split_1
I1128 14:26:21.757058 11324 net.cpp:122] Setting up fire3/squeeze1x1_fire3/relu_squeeze1x1_0_split
I1128 14:26:21.757063 11324 net.cpp:129] Top shape: 10 16 56 56 (501760)
I1128 14:26:21.757067 11324 net.cpp:129] Top shape: 10 16 56 56 (501760)
I1128 14:26:21.757071 11324 net.cpp:137] Memory required for data: 143814200
I1128 14:26:21.757073 11324 layer_factory.hpp:77] Creating layer fire3/expand1x1
I1128 14:26:21.757082 11324 net.cpp:84] Creating Layer fire3/expand1x1
I1128 14:26:21.757086 11324 net.cpp:406] fire3/expand1x1 <- fire3/squeeze1x1_fire3/relu_squeeze1x1_0_split_0
I1128 14:26:21.757091 11324 net.cpp:380] fire3/expand1x1 -> fire3/expand1x1
I1128 14:26:21.757124 11324 net.cpp:122] Setting up fire3/expand1x1
I1128 14:26:21.757130 11324 net.cpp:129] Top shape: 10 64 56 56 (2007040)
I1128 14:26:21.757133 11324 net.cpp:137] Memory required for data: 151842360
I1128 14:26:21.757139 11324 layer_factory.hpp:77] Creating layer fire3/relu_expand1x1
I1128 14:26:21.757145 11324 net.cpp:84] Creating Layer fire3/relu_expand1x1
I1128 14:26:21.757149 11324 net.cpp:406] fire3/relu_expand1x1 <- fire3/expand1x1
I1128 14:26:21.757153 11324 net.cpp:367] fire3/relu_expand1x1 -> fire3/expand1x1 (in-place)
I1128 14:26:21.757159 11324 net.cpp:122] Setting up fire3/relu_expand1x1
I1128 14:26:21.757164 11324 net.cpp:129] Top shape: 10 64 56 56 (2007040)
I1128 14:26:21.757167 11324 net.cpp:137] Memory required for data: 159870520
I1128 14:26:21.757176 11324 layer_factory.hpp:77] Creating layer fire3/expand3x3
I1128 14:26:21.757186 11324 net.cpp:84] Creating Layer fire3/expand3x3
I1128 14:26:21.757190 11324 net.cpp:406] fire3/expand3x3 <- fire3/squeeze1x1_fire3/relu_squeeze1x1_0_split_1
I1128 14:26:21.757196 11324 net.cpp:380] fire3/expand3x3 -> fire3/expand3x3
I1128 14:26:21.757287 11324 net.cpp:122] Setting up fire3/expand3x3
I1128 14:26:21.757292 11324 net.cpp:129] Top shape: 10 64 56 56 (2007040)
I1128 14:26:21.757297 11324 net.cpp:137] Memory required for data: 167898680
I1128 14:26:21.757302 11324 layer_factory.hpp:77] Creating layer fire3/relu_expand3x3
I1128 14:26:21.757306 11324 net.cpp:84] Creating Layer fire3/relu_expand3x3
I1128 14:26:21.757313 11324 net.cpp:406] fire3/relu_expand3x3 <- fire3/expand3x3
I1128 14:26:21.757318 11324 net.cpp:367] fire3/relu_expand3x3 -> fire3/expand3x3 (in-place)
I1128 14:26:21.757323 11324 net.cpp:122] Setting up fire3/relu_expand3x3
I1128 14:26:21.757326 11324 net.cpp:129] Top shape: 10 64 56 56 (2007040)
I1128 14:26:21.757330 11324 net.cpp:137] Memory required for data: 175926840
I1128 14:26:21.757333 11324 layer_factory.hpp:77] Creating layer fire3/concat
I1128 14:26:21.757354 11324 net.cpp:84] Creating Layer fire3/concat
I1128 14:26:21.757359 11324 net.cpp:406] fire3/concat <- fire3/expand1x1
I1128 14:26:21.757364 11324 net.cpp:406] fire3/concat <- fire3/expand3x3
I1128 14:26:21.757385 11324 net.cpp:380] fire3/concat -> fire3/concat
I1128 14:26:21.757395 11324 net.cpp:122] Setting up fire3/concat
I1128 14:26:21.757400 11324 net.cpp:129] Top shape: 10 128 56 56 (4014080)
I1128 14:26:21.757403 11324 net.cpp:137] Memory required for data: 191983160
I1128 14:26:21.757406 11324 layer_factory.hpp:77] Creating layer pool3
I1128 14:26:21.757421 11324 net.cpp:84] Creating Layer pool3
I1128 14:26:21.757426 11324 net.cpp:406] pool3 <- fire3/concat
I1128 14:26:21.757431 11324 net.cpp:380] pool3 -> pool3
I1128 14:26:21.757438 11324 net.cpp:122] Setting up pool3
I1128 14:26:21.757446 11324 net.cpp:129] Top shape: 10 128 28 28 (1003520)
I1128 14:26:21.757449 11324 net.cpp:137] Memory required for data: 195997240
I1128 14:26:21.757452 11324 layer_factory.hpp:77] Creating layer fire4/squeeze1x1
I1128 14:26:21.757459 11324 net.cpp:84] Creating Layer fire4/squeeze1x1
I1128 14:26:21.757463 11324 net.cpp:406] fire4/squeeze1x1 <- pool3
I1128 14:26:21.757472 11324 net.cpp:380] fire4/squeeze1x1 -> fire4/squeeze1x1
I1128 14:26:21.757525 11324 net.cpp:122] Setting up fire4/squeeze1x1
I1128 14:26:21.757531 11324 net.cpp:129] Top shape: 10 32 28 28 (250880)
I1128 14:26:21.757534 11324 net.cpp:137] Memory required for data: 197000760
I1128 14:26:21.757540 11324 layer_factory.hpp:77] Creating layer fire4/relu_squeeze1x1
I1128 14:26:21.757549 11324 net.cpp:84] Creating Layer fire4/relu_squeeze1x1
I1128 14:26:21.757551 11324 net.cpp:406] fire4/relu_squeeze1x1 <- fire4/squeeze1x1
I1128 14:26:21.757556 11324 net.cpp:367] fire4/relu_squeeze1x1 -> fire4/squeeze1x1 (in-place)
I1128 14:26:21.757561 11324 net.cpp:122] Setting up fire4/relu_squeeze1x1
I1128 14:26:21.757566 11324 net.cpp:129] Top shape: 10 32 28 28 (250880)
I1128 14:26:21.757570 11324 net.cpp:137] Memory required for data: 198004280
I1128 14:26:21.757572 11324 layer_factory.hpp:77] Creating layer fire4/squeeze1x1_fire4/relu_squeeze1x1_0_split
I1128 14:26:21.757577 11324 net.cpp:84] Creating Layer fire4/squeeze1x1_fire4/relu_squeeze1x1_0_split
I1128 14:26:21.757581 11324 net.cpp:406] fire4/squeeze1x1_fire4/relu_squeeze1x1_0_split <- fire4/squeeze1x1
I1128 14:26:21.757586 11324 net.cpp:380] fire4/squeeze1x1_fire4/relu_squeeze1x1_0_split -> fire4/squeeze1x1_fire4/relu_squeeze1x1_0_split_0
I1128 14:26:21.757591 11324 net.cpp:380] fire4/squeeze1x1_fire4/relu_squeeze1x1_0_split -> fire4/squeeze1x1_fire4/relu_squeeze1x1_0_split_1
I1128 14:26:21.757597 11324 net.cpp:122] Setting up fire4/squeeze1x1_fire4/relu_squeeze1x1_0_split
I1128 14:26:21.757602 11324 net.cpp:129] Top shape: 10 32 28 28 (250880)
I1128 14:26:21.757606 11324 net.cpp:129] Top shape: 10 32 28 28 (250880)
I1128 14:26:21.757616 11324 net.cpp:137] Memory required for data: 200011320
I1128 14:26:21.757621 11324 layer_factory.hpp:77] Creating layer fire4/expand1x1
I1128 14:26:21.757629 11324 net.cpp:84] Creating Layer fire4/expand1x1
I1128 14:26:21.757633 11324 net.cpp:406] fire4/expand1x1 <- fire4/squeeze1x1_fire4/relu_squeeze1x1_0_split_0
I1128 14:26:21.757639 11324 net.cpp:380] fire4/expand1x1 -> fire4/expand1x1
I1128 14:26:21.757714 11324 net.cpp:122] Setting up fire4/expand1x1
I1128 14:26:21.757726 11324 net.cpp:129] Top shape: 10 128 28 28 (1003520)
I1128 14:26:21.757730 11324 net.cpp:137] Memory required for data: 204025400
I1128 14:26:21.757740 11324 layer_factory.hpp:77] Creating layer fire4/relu_expand1x1
I1128 14:26:21.757745 11324 net.cpp:84] Creating Layer fire4/relu_expand1x1
I1128 14:26:21.757750 11324 net.cpp:406] fire4/relu_expand1x1 <- fire4/expand1x1
I1128 14:26:21.757755 11324 net.cpp:367] fire4/relu_expand1x1 -> fire4/expand1x1 (in-place)
I1128 14:26:21.757761 11324 net.cpp:122] Setting up fire4/relu_expand1x1
I1128 14:26:21.757766 11324 net.cpp:129] Top shape: 10 128 28 28 (1003520)
I1128 14:26:21.757768 11324 net.cpp:137] Memory required for data: 208039480
I1128 14:26:21.757771 11324 layer_factory.hpp:77] Creating layer fire4/expand3x3
I1128 14:26:21.757781 11324 net.cpp:84] Creating Layer fire4/expand3x3
I1128 14:26:21.757786 11324 net.cpp:406] fire4/expand3x3 <- fire4/squeeze1x1_fire4/relu_squeeze1x1_0_split_1
I1128 14:26:21.757791 11324 net.cpp:380] fire4/expand3x3 -> fire4/expand3x3
I1128 14:26:21.758090 11324 net.cpp:122] Setting up fire4/expand3x3
I1128 14:26:21.758097 11324 net.cpp:129] Top shape: 10 128 28 28 (1003520)
I1128 14:26:21.758100 11324 net.cpp:137] Memory required for data: 212053560
I1128 14:26:21.758106 11324 layer_factory.hpp:77] Creating layer fire4/relu_expand3x3
I1128 14:26:21.758114 11324 net.cpp:84] Creating Layer fire4/relu_expand3x3
I1128 14:26:21.758118 11324 net.cpp:406] fire4/relu_expand3x3 <- fire4/expand3x3
I1128 14:26:21.758123 11324 net.cpp:367] fire4/relu_expand3x3 -> fire4/expand3x3 (in-place)
I1128 14:26:21.758128 11324 net.cpp:122] Setting up fire4/relu_expand3x3
I1128 14:26:21.758133 11324 net.cpp:129] Top shape: 10 128 28 28 (1003520)
I1128 14:26:21.758136 11324 net.cpp:137] Memory required for data: 216067640
I1128 14:26:21.758139 11324 layer_factory.hpp:77] Creating layer fire4/concat
I1128 14:26:21.758144 11324 net.cpp:84] Creating Layer fire4/concat
I1128 14:26:21.758148 11324 net.cpp:406] fire4/concat <- fire4/expand1x1
I1128 14:26:21.758152 11324 net.cpp:406] fire4/concat <- fire4/expand3x3
I1128 14:26:21.758158 11324 net.cpp:380] fire4/concat -> fire4/concat
I1128 14:26:21.758165 11324 net.cpp:122] Setting up fire4/concat
I1128 14:26:21.758170 11324 net.cpp:129] Top shape: 10 256 28 28 (2007040)
I1128 14:26:21.758173 11324 net.cpp:137] Memory required for data: 224095800
I1128 14:26:21.758177 11324 layer_factory.hpp:77] Creating layer fire5/squeeze1x1
I1128 14:26:21.758184 11324 net.cpp:84] Creating Layer fire5/squeeze1x1
I1128 14:26:21.758189 11324 net.cpp:406] fire5/squeeze1x1 <- fire4/concat
I1128 14:26:21.758194 11324 net.cpp:380] fire5/squeeze1x1 -> fire5/squeeze1x1
I1128 14:26:21.758296 11324 net.cpp:122] Setting up fire5/squeeze1x1
I1128 14:26:21.758304 11324 net.cpp:129] Top shape: 10 32 28 28 (250880)
I1128 14:26:21.758308 11324 net.cpp:137] Memory required for data: 225099320
I1128 14:26:21.758313 11324 layer_factory.hpp:77] Creating layer fire5/relu_squeeze1x1
I1128 14:26:21.758322 11324 net.cpp:84] Creating Layer fire5/relu_squeeze1x1
I1128 14:26:21.758325 11324 net.cpp:406] fire5/relu_squeeze1x1 <- fire5/squeeze1x1
I1128 14:26:21.758330 11324 net.cpp:367] fire5/relu_squeeze1x1 -> fire5/squeeze1x1 (in-place)
I1128 14:26:21.758335 11324 net.cpp:122] Setting up fire5/relu_squeeze1x1
I1128 14:26:21.758340 11324 net.cpp:129] Top shape: 10 32 28 28 (250880)
I1128 14:26:21.758343 11324 net.cpp:137] Memory required for data: 226102840
I1128 14:26:21.758347 11324 layer_factory.hpp:77] Creating layer fire5/squeeze1x1_fire5/relu_squeeze1x1_0_split
I1128 14:26:21.758394 11324 net.cpp:84] Creating Layer fire5/squeeze1x1_fire5/relu_squeeze1x1_0_split
I1128 14:26:21.758404 11324 net.cpp:406] fire5/squeeze1x1_fire5/relu_squeeze1x1_0_split <- fire5/squeeze1x1
I1128 14:26:21.758412 11324 net.cpp:380] fire5/squeeze1x1_fire5/relu_squeeze1x1_0_split -> fire5/squeeze1x1_fire5/relu_squeeze1x1_0_split_0
I1128 14:26:21.758419 11324 net.cpp:380] fire5/squeeze1x1_fire5/relu_squeeze1x1_0_split -> fire5/squeeze1x1_fire5/relu_squeeze1x1_0_split_1
I1128 14:26:21.758426 11324 net.cpp:122] Setting up fire5/squeeze1x1_fire5/relu_squeeze1x1_0_split
I1128 14:26:21.758432 11324 net.cpp:129] Top shape: 10 32 28 28 (250880)
I1128 14:26:21.758436 11324 net.cpp:129] Top shape: 10 32 28 28 (250880)
I1128 14:26:21.758440 11324 net.cpp:137] Memory required for data: 228109880
I1128 14:26:21.758443 11324 layer_factory.hpp:77] Creating layer fire5/expand1x1
I1128 14:26:21.758464 11324 net.cpp:84] Creating Layer fire5/expand1x1
I1128 14:26:21.758469 11324 net.cpp:406] fire5/expand1x1 <- fire5/squeeze1x1_fire5/relu_squeeze1x1_0_split_0
I1128 14:26:21.758477 11324 net.cpp:380] fire5/expand1x1 -> fire5/expand1x1
I1128 14:26:21.758529 11324 net.cpp:122] Setting up fire5/expand1x1
I1128 14:26:21.758535 11324 net.cpp:129] Top shape: 10 128 28 28 (1003520)
I1128 14:26:21.758539 11324 net.cpp:137] Memory required for data: 232123960
I1128 14:26:21.758544 11324 layer_factory.hpp:77] Creating layer fire5/relu_expand1x1
I1128 14:26:21.758549 11324 net.cpp:84] Creating Layer fire5/relu_expand1x1
I1128 14:26:21.758553 11324 net.cpp:406] fire5/relu_expand1x1 <- fire5/expand1x1
I1128 14:26:21.758558 11324 net.cpp:367] fire5/relu_expand1x1 -> fire5/expand1x1 (in-place)
I1128 14:26:21.758563 11324 net.cpp:122] Setting up fire5/relu_expand1x1
I1128 14:26:21.758569 11324 net.cpp:129] Top shape: 10 128 28 28 (1003520)
I1128 14:26:21.758571 11324 net.cpp:137] Memory required for data: 236138040
I1128 14:26:21.758574 11324 layer_factory.hpp:77] Creating layer fire5/expand3x3
I1128 14:26:21.758580 11324 net.cpp:84] Creating Layer fire5/expand3x3
I1128 14:26:21.758584 11324 net.cpp:406] fire5/expand3x3 <- fire5/squeeze1x1_fire5/relu_squeeze1x1_0_split_1
I1128 14:26:21.758592 11324 net.cpp:380] fire5/expand3x3 -> fire5/expand3x3
I1128 14:26:21.758891 11324 net.cpp:122] Setting up fire5/expand3x3
I1128 14:26:21.758898 11324 net.cpp:129] Top shape: 10 128 28 28 (1003520)
I1128 14:26:21.758903 11324 net.cpp:137] Memory required for data: 240152120
I1128 14:26:21.758908 11324 layer_factory.hpp:77] Creating layer fire5/relu_expand3x3
I1128 14:26:21.758915 11324 net.cpp:84] Creating Layer fire5/relu_expand3x3
I1128 14:26:21.758919 11324 net.cpp:406] fire5/relu_expand3x3 <- fire5/expand3x3
I1128 14:26:21.758924 11324 net.cpp:367] fire5/relu_expand3x3 -> fire5/expand3x3 (in-place)
I1128 14:26:21.758929 11324 net.cpp:122] Setting up fire5/relu_expand3x3
I1128 14:26:21.758934 11324 net.cpp:129] Top shape: 10 128 28 28 (1003520)
I1128 14:26:21.758937 11324 net.cpp:137] Memory required for data: 244166200
I1128 14:26:21.758940 11324 layer_factory.hpp:77] Creating layer fire5/concat
I1128 14:26:21.758945 11324 net.cpp:84] Creating Layer fire5/concat
I1128 14:26:21.758949 11324 net.cpp:406] fire5/concat <- fire5/expand1x1
I1128 14:26:21.758954 11324 net.cpp:406] fire5/concat <- fire5/expand3x3
I1128 14:26:21.758960 11324 net.cpp:380] fire5/concat -> fire5/concat
I1128 14:26:21.758966 11324 net.cpp:122] Setting up fire5/concat
I1128 14:26:21.758971 11324 net.cpp:129] Top shape: 10 256 28 28 (2007040)
I1128 14:26:21.758975 11324 net.cpp:137] Memory required for data: 252194360
I1128 14:26:21.758977 11324 layer_factory.hpp:77] Creating layer pool5
I1128 14:26:21.758983 11324 net.cpp:84] Creating Layer pool5
I1128 14:26:21.758987 11324 net.cpp:406] pool5 <- fire5/concat
I1128 14:26:21.758996 11324 net.cpp:380] pool5 -> pool5
I1128 14:26:21.759004 11324 net.cpp:122] Setting up pool5
I1128 14:26:21.759009 11324 net.cpp:129] Top shape: 10 256 14 14 (501760)
I1128 14:26:21.759012 11324 net.cpp:137] Memory required for data: 254201400
I1128 14:26:21.759022 11324 layer_factory.hpp:77] Creating layer fire6/squeeze1x1
I1128 14:26:21.759032 11324 net.cpp:84] Creating Layer fire6/squeeze1x1
I1128 14:26:21.759035 11324 net.cpp:406] fire6/squeeze1x1 <- pool5
I1128 14:26:21.759040 11324 net.cpp:380] fire6/squeeze1x1 -> fire6/squeeze1x1
I1128 14:26:21.759155 11324 net.cpp:122] Setting up fire6/squeeze1x1
I1128 14:26:21.759160 11324 net.cpp:129] Top shape: 10 48 14 14 (94080)
I1128 14:26:21.759165 11324 net.cpp:137] Memory required for data: 254577720
I1128 14:26:21.759169 11324 layer_factory.hpp:77] Creating layer fire6/relu_squeeze1x1
I1128 14:26:21.759178 11324 net.cpp:84] Creating Layer fire6/relu_squeeze1x1
I1128 14:26:21.759182 11324 net.cpp:406] fire6/relu_squeeze1x1 <- fire6/squeeze1x1
I1128 14:26:21.759187 11324 net.cpp:367] fire6/relu_squeeze1x1 -> fire6/squeeze1x1 (in-place)
I1128 14:26:21.759192 11324 net.cpp:122] Setting up fire6/relu_squeeze1x1
I1128 14:26:21.759197 11324 net.cpp:129] Top shape: 10 48 14 14 (94080)
I1128 14:26:21.759201 11324 net.cpp:137] Memory required for data: 254954040
I1128 14:26:21.759204 11324 layer_factory.hpp:77] Creating layer fire6/squeeze1x1_fire6/relu_squeeze1x1_0_split
I1128 14:26:21.759208 11324 net.cpp:84] Creating Layer fire6/squeeze1x1_fire6/relu_squeeze1x1_0_split
I1128 14:26:21.759212 11324 net.cpp:406] fire6/squeeze1x1_fire6/relu_squeeze1x1_0_split <- fire6/squeeze1x1
I1128 14:26:21.759219 11324 net.cpp:380] fire6/squeeze1x1_fire6/relu_squeeze1x1_0_split -> fire6/squeeze1x1_fire6/relu_squeeze1x1_0_split_0
I1128 14:26:21.759225 11324 net.cpp:380] fire6/squeeze1x1_fire6/relu_squeeze1x1_0_split -> fire6/squeeze1x1_fire6/relu_squeeze1x1_0_split_1
I1128 14:26:21.759232 11324 net.cpp:122] Setting up fire6/squeeze1x1_fire6/relu_squeeze1x1_0_split
I1128 14:26:21.759236 11324 net.cpp:129] Top shape: 10 48 14 14 (94080)
I1128 14:26:21.759240 11324 net.cpp:129] Top shape: 10 48 14 14 (94080)
I1128 14:26:21.759243 11324 net.cpp:137] Memory required for data: 255706680
I1128 14:26:21.759248 11324 layer_factory.hpp:77] Creating layer fire6/expand1x1
I1128 14:26:21.759255 11324 net.cpp:84] Creating Layer fire6/expand1x1
I1128 14:26:21.759259 11324 net.cpp:406] fire6/expand1x1 <- fire6/squeeze1x1_fire6/relu_squeeze1x1_0_split_0
I1128 14:26:21.759264 11324 net.cpp:380] fire6/expand1x1 -> fire6/expand1x1
I1128 14:26:21.759351 11324 net.cpp:122] Setting up fire6/expand1x1
I1128 14:26:21.759357 11324 net.cpp:129] Top shape: 10 192 14 14 (376320)
I1128 14:26:21.759361 11324 net.cpp:137] Memory required for data: 257211960
I1128 14:26:21.759366 11324 layer_factory.hpp:77] Creating layer fire6/relu_expand1x1
I1128 14:26:21.759388 11324 net.cpp:84] Creating Layer fire6/relu_expand1x1
I1128 14:26:21.759393 11324 net.cpp:406] fire6/relu_expand1x1 <- fire6/expand1x1
I1128 14:26:21.759402 11324 net.cpp:367] fire6/relu_expand1x1 -> fire6/expand1x1 (in-place)
I1128 14:26:21.759407 11324 net.cpp:122] Setting up fire6/relu_expand1x1
I1128 14:26:21.759413 11324 net.cpp:129] Top shape: 10 192 14 14 (376320)
I1128 14:26:21.759416 11324 net.cpp:137] Memory required for data: 258717240
I1128 14:26:21.759419 11324 layer_factory.hpp:77] Creating layer fire6/expand3x3
I1128 14:26:21.759428 11324 net.cpp:84] Creating Layer fire6/expand3x3
I1128 14:26:21.759431 11324 net.cpp:406] fire6/expand3x3 <- fire6/squeeze1x1_fire6/relu_squeeze1x1_0_split_1
I1128 14:26:21.759438 11324 net.cpp:380] fire6/expand3x3 -> fire6/expand3x3
I1128 14:26:21.760107 11324 net.cpp:122] Setting up fire6/expand3x3
I1128 14:26:21.760115 11324 net.cpp:129] Top shape: 10 192 14 14 (376320)
I1128 14:26:21.760118 11324 net.cpp:137] Memory required for data: 260222520
I1128 14:26:21.760124 11324 layer_factory.hpp:77] Creating layer fire6/relu_expand3x3
I1128 14:26:21.760133 11324 net.cpp:84] Creating Layer fire6/relu_expand3x3
I1128 14:26:21.760138 11324 net.cpp:406] fire6/relu_expand3x3 <- fire6/expand3x3
I1128 14:26:21.760143 11324 net.cpp:367] fire6/relu_expand3x3 -> fire6/expand3x3 (in-place)
I1128 14:26:21.760149 11324 net.cpp:122] Setting up fire6/relu_expand3x3
I1128 14:26:21.760160 11324 net.cpp:129] Top shape: 10 192 14 14 (376320)
I1128 14:26:21.760164 11324 net.cpp:137] Memory required for data: 261727800
I1128 14:26:21.760167 11324 layer_factory.hpp:77] Creating layer fire6/concat
I1128 14:26:21.760172 11324 net.cpp:84] Creating Layer fire6/concat
I1128 14:26:21.760176 11324 net.cpp:406] fire6/concat <- fire6/expand1x1
I1128 14:26:21.760180 11324 net.cpp:406] fire6/concat <- fire6/expand3x3
I1128 14:26:21.760187 11324 net.cpp:380] fire6/concat -> fire6/concat
I1128 14:26:21.760195 11324 net.cpp:122] Setting up fire6/concat
I1128 14:26:21.760198 11324 net.cpp:129] Top shape: 10 384 14 14 (752640)
I1128 14:26:21.760202 11324 net.cpp:137] Memory required for data: 264738360
I1128 14:26:21.760205 11324 layer_factory.hpp:77] Creating layer fire7/squeeze1x1
I1128 14:26:21.760211 11324 net.cpp:84] Creating Layer fire7/squeeze1x1
I1128 14:26:21.760215 11324 net.cpp:406] fire7/squeeze1x1 <- fire6/concat
I1128 14:26:21.760224 11324 net.cpp:380] fire7/squeeze1x1 -> fire7/squeeze1x1
I1128 14:26:21.760404 11324 net.cpp:122] Setting up fire7/squeeze1x1
I1128 14:26:21.760414 11324 net.cpp:129] Top shape: 10 48 14 14 (94080)
I1128 14:26:21.760418 11324 net.cpp:137] Memory required for data: 265114680
I1128 14:26:21.760430 11324 layer_factory.hpp:77] Creating layer fire7/relu_squeeze1x1
I1128 14:26:21.760437 11324 net.cpp:84] Creating Layer fire7/relu_squeeze1x1
I1128 14:26:21.760440 11324 net.cpp:406] fire7/relu_squeeze1x1 <- fire7/squeeze1x1
I1128 14:26:21.760448 11324 net.cpp:367] fire7/relu_squeeze1x1 -> fire7/squeeze1x1 (in-place)
I1128 14:26:21.760454 11324 net.cpp:122] Setting up fire7/relu_squeeze1x1
I1128 14:26:21.760459 11324 net.cpp:129] Top shape: 10 48 14 14 (94080)
I1128 14:26:21.760462 11324 net.cpp:137] Memory required for data: 265491000
I1128 14:26:21.760465 11324 layer_factory.hpp:77] Creating layer fire7/squeeze1x1_fire7/relu_squeeze1x1_0_split
I1128 14:26:21.760470 11324 net.cpp:84] Creating Layer fire7/squeeze1x1_fire7/relu_squeeze1x1_0_split
I1128 14:26:21.760474 11324 net.cpp:406] fire7/squeeze1x1_fire7/relu_squeeze1x1_0_split <- fire7/squeeze1x1
I1128 14:26:21.760479 11324 net.cpp:380] fire7/squeeze1x1_fire7/relu_squeeze1x1_0_split -> fire7/squeeze1x1_fire7/relu_squeeze1x1_0_split_0
I1128 14:26:21.760485 11324 net.cpp:380] fire7/squeeze1x1_fire7/relu_squeeze1x1_0_split -> fire7/squeeze1x1_fire7/relu_squeeze1x1_0_split_1
I1128 14:26:21.760493 11324 net.cpp:122] Setting up fire7/squeeze1x1_fire7/relu_squeeze1x1_0_split
I1128 14:26:21.760499 11324 net.cpp:129] Top shape: 10 48 14 14 (94080)
I1128 14:26:21.760502 11324 net.cpp:129] Top shape: 10 48 14 14 (94080)
I1128 14:26:21.760505 11324 net.cpp:137] Memory required for data: 266243640
I1128 14:26:21.760509 11324 layer_factory.hpp:77] Creating layer fire7/expand1x1
I1128 14:26:21.760515 11324 net.cpp:84] Creating Layer fire7/expand1x1
I1128 14:26:21.760519 11324 net.cpp:406] fire7/expand1x1 <- fire7/squeeze1x1_fire7/relu_squeeze1x1_0_split_0
I1128 14:26:21.760526 11324 net.cpp:380] fire7/expand1x1 -> fire7/expand1x1
I1128 14:26:21.760617 11324 net.cpp:122] Setting up fire7/expand1x1
I1128 14:26:21.760634 11324 net.cpp:129] Top shape: 10 192 14 14 (376320)
I1128 14:26:21.760639 11324 net.cpp:137] Memory required for data: 267748920
I1128 14:26:21.760645 11324 layer_factory.hpp:77] Creating layer fire7/relu_expand1x1
I1128 14:26:21.760653 11324 net.cpp:84] Creating Layer fire7/relu_expand1x1
I1128 14:26:21.760656 11324 net.cpp:406] fire7/relu_expand1x1 <- fire7/expand1x1
I1128 14:26:21.760661 11324 net.cpp:367] fire7/relu_expand1x1 -> fire7/expand1x1 (in-place)
I1128 14:26:21.760668 11324 net.cpp:122] Setting up fire7/relu_expand1x1
I1128 14:26:21.760673 11324 net.cpp:129] Top shape: 10 192 14 14 (376320)
I1128 14:26:21.760675 11324 net.cpp:137] Memory required for data: 269254200
I1128 14:26:21.760679 11324 layer_factory.hpp:77] Creating layer fire7/expand3x3
I1128 14:26:21.760689 11324 net.cpp:84] Creating Layer fire7/expand3x3
I1128 14:26:21.760692 11324 net.cpp:406] fire7/expand3x3 <- fire7/squeeze1x1_fire7/relu_squeeze1x1_0_split_1
I1128 14:26:21.760704 11324 net.cpp:380] fire7/expand3x3 -> fire7/expand3x3
I1128 14:26:21.761394 11324 net.cpp:122] Setting up fire7/expand3x3
I1128 14:26:21.761405 11324 net.cpp:129] Top shape: 10 192 14 14 (376320)
I1128 14:26:21.761409 11324 net.cpp:137] Memory required for data: 270759480
I1128 14:26:21.761415 11324 layer_factory.hpp:77] Creating layer fire7/relu_expand3x3
I1128 14:26:21.761420 11324 net.cpp:84] Creating Layer fire7/relu_expand3x3
I1128 14:26:21.761425 11324 net.cpp:406] fire7/relu_expand3x3 <- fire7/expand3x3
I1128 14:26:21.761430 11324 net.cpp:367] fire7/relu_expand3x3 -> fire7/expand3x3 (in-place)
I1128 14:26:21.761435 11324 net.cpp:122] Setting up fire7/relu_expand3x3
I1128 14:26:21.761440 11324 net.cpp:129] Top shape: 10 192 14 14 (376320)
I1128 14:26:21.761443 11324 net.cpp:137] Memory required for data: 272264760
I1128 14:26:21.761446 11324 layer_factory.hpp:77] Creating layer fire7/concat
I1128 14:26:21.761451 11324 net.cpp:84] Creating Layer fire7/concat
I1128 14:26:21.761456 11324 net.cpp:406] fire7/concat <- fire7/expand1x1
I1128 14:26:21.761459 11324 net.cpp:406] fire7/concat <- fire7/expand3x3
I1128 14:26:21.761471 11324 net.cpp:380] fire7/concat -> fire7/concat
I1128 14:26:21.761478 11324 net.cpp:122] Setting up fire7/concat
I1128 14:26:21.761483 11324 net.cpp:129] Top shape: 10 384 14 14 (752640)
I1128 14:26:21.761487 11324 net.cpp:137] Memory required for data: 275275320
I1128 14:26:21.761489 11324 layer_factory.hpp:77] Creating layer fire8/squeeze1x1
I1128 14:26:21.761498 11324 net.cpp:84] Creating Layer fire8/squeeze1x1
I1128 14:26:21.761502 11324 net.cpp:406] fire8/squeeze1x1 <- fire7/concat
I1128 14:26:21.761507 11324 net.cpp:380] fire8/squeeze1x1 -> fire8/squeeze1x1
I1128 14:26:21.761709 11324 net.cpp:122] Setting up fire8/squeeze1x1
I1128 14:26:21.761715 11324 net.cpp:129] Top shape: 10 64 14 14 (125440)
I1128 14:26:21.761719 11324 net.cpp:137] Memory required for data: 275777080
I1128 14:26:21.761724 11324 layer_factory.hpp:77] Creating layer fire8/relu_squeeze1x1
I1128 14:26:21.761732 11324 net.cpp:84] Creating Layer fire8/relu_squeeze1x1
I1128 14:26:21.761736 11324 net.cpp:406] fire8/relu_squeeze1x1 <- fire8/squeeze1x1
I1128 14:26:21.761741 11324 net.cpp:367] fire8/relu_squeeze1x1 -> fire8/squeeze1x1 (in-place)
I1128 14:26:21.761746 11324 net.cpp:122] Setting up fire8/relu_squeeze1x1
I1128 14:26:21.761751 11324 net.cpp:129] Top shape: 10 64 14 14 (125440)
I1128 14:26:21.761754 11324 net.cpp:137] Memory required for data: 276278840
I1128 14:26:21.761757 11324 layer_factory.hpp:77] Creating layer fire8/squeeze1x1_fire8/relu_squeeze1x1_0_split
I1128 14:26:21.761765 11324 net.cpp:84] Creating Layer fire8/squeeze1x1_fire8/relu_squeeze1x1_0_split
I1128 14:26:21.761768 11324 net.cpp:406] fire8/squeeze1x1_fire8/relu_squeeze1x1_0_split <- fire8/squeeze1x1
I1128 14:26:21.761773 11324 net.cpp:380] fire8/squeeze1x1_fire8/relu_squeeze1x1_0_split -> fire8/squeeze1x1_fire8/relu_squeeze1x1_0_split_0
I1128 14:26:21.761780 11324 net.cpp:380] fire8/squeeze1x1_fire8/relu_squeeze1x1_0_split -> fire8/squeeze1x1_fire8/relu_squeeze1x1_0_split_1
I1128 14:26:21.761785 11324 net.cpp:122] Setting up fire8/squeeze1x1_fire8/relu_squeeze1x1_0_split
I1128 14:26:21.761790 11324 net.cpp:129] Top shape: 10 64 14 14 (125440)
I1128 14:26:21.761795 11324 net.cpp:129] Top shape: 10 64 14 14 (125440)
I1128 14:26:21.761798 11324 net.cpp:137] Memory required for data: 277282360
I1128 14:26:21.761801 11324 layer_factory.hpp:77] Creating layer fire8/expand1x1
I1128 14:26:21.761811 11324 net.cpp:84] Creating Layer fire8/expand1x1
I1128 14:26:21.761814 11324 net.cpp:406] fire8/expand1x1 <- fire8/squeeze1x1_fire8/relu_squeeze1x1_0_split_0
I1128 14:26:21.761819 11324 net.cpp:380] fire8/expand1x1 -> fire8/expand1x1
I1128 14:26:21.761962 11324 net.cpp:122] Setting up fire8/expand1x1
I1128 14:26:21.761968 11324 net.cpp:129] Top shape: 10 256 14 14 (501760)
I1128 14:26:21.761972 11324 net.cpp:137] Memory required for data: 279289400
I1128 14:26:21.761977 11324 layer_factory.hpp:77] Creating layer fire8/relu_expand1x1
I1128 14:26:21.761989 11324 net.cpp:84] Creating Layer fire8/relu_expand1x1
I1128 14:26:21.761994 11324 net.cpp:406] fire8/relu_expand1x1 <- fire8/expand1x1
I1128 14:26:21.761999 11324 net.cpp:367] fire8/relu_expand1x1 -> fire8/expand1x1 (in-place)
I1128 14:26:21.762004 11324 net.cpp:122] Setting up fire8/relu_expand1x1
I1128 14:26:21.762009 11324 net.cpp:129] Top shape: 10 256 14 14 (501760)
I1128 14:26:21.762012 11324 net.cpp:137] Memory required for data: 281296440
I1128 14:26:21.762015 11324 layer_factory.hpp:77] Creating layer fire8/expand3x3
I1128 14:26:21.762024 11324 net.cpp:84] Creating Layer fire8/expand3x3
I1128 14:26:21.762028 11324 net.cpp:406] fire8/expand3x3 <- fire8/squeeze1x1_fire8/relu_squeeze1x1_0_split_1
I1128 14:26:21.762037 11324 net.cpp:380] fire8/expand3x3 -> fire8/expand3x3
I1128 14:26:21.763226 11324 net.cpp:122] Setting up fire8/expand3x3
I1128 14:26:21.763238 11324 net.cpp:129] Top shape: 10 256 14 14 (501760)
I1128 14:26:21.763242 11324 net.cpp:137] Memory required for data: 283303480
I1128 14:26:21.763248 11324 layer_factory.hpp:77] Creating layer fire8/relu_expand3x3
I1128 14:26:21.763257 11324 net.cpp:84] Creating Layer fire8/relu_expand3x3
I1128 14:26:21.763262 11324 net.cpp:406] fire8/relu_expand3x3 <- fire8/expand3x3
I1128 14:26:21.763267 11324 net.cpp:367] fire8/relu_expand3x3 -> fire8/expand3x3 (in-place)
I1128 14:26:21.763274 11324 net.cpp:122] Setting up fire8/relu_expand3x3
I1128 14:26:21.763278 11324 net.cpp:129] Top shape: 10 256 14 14 (501760)
I1128 14:26:21.763283 11324 net.cpp:137] Memory required for data: 285310520
I1128 14:26:21.763285 11324 layer_factory.hpp:77] Creating layer fire8/concat
I1128 14:26:21.763290 11324 net.cpp:84] Creating Layer fire8/concat
I1128 14:26:21.763294 11324 net.cpp:406] fire8/concat <- fire8/expand1x1
I1128 14:26:21.763298 11324 net.cpp:406] fire8/concat <- fire8/expand3x3
I1128 14:26:21.763306 11324 net.cpp:380] fire8/concat -> fire8/concat
I1128 14:26:21.763314 11324 net.cpp:122] Setting up fire8/concat
I1128 14:26:21.763319 11324 net.cpp:129] Top shape: 10 512 14 14 (1003520)
I1128 14:26:21.763321 11324 net.cpp:137] Memory required for data: 289324600
I1128 14:26:21.763324 11324 layer_factory.hpp:77] Creating layer fire9/squeeze1x1
I1128 14:26:21.763330 11324 net.cpp:84] Creating Layer fire9/squeeze1x1
I1128 14:26:21.763334 11324 net.cpp:406] fire9/squeeze1x1 <- fire8/concat
I1128 14:26:21.763342 11324 net.cpp:380] fire9/squeeze1x1 -> fire9/squeeze1x1
I1128 14:26:21.763875 11324 net.cpp:122] Setting up fire9/squeeze1x1
I1128 14:26:21.763890 11324 net.cpp:129] Top shape: 10 64 14 14 (125440)
I1128 14:26:21.763895 11324 net.cpp:137] Memory required for data: 289826360
I1128 14:26:21.763901 11324 layer_factory.hpp:77] Creating layer fire9/relu_squeeze1x1
I1128 14:26:21.763907 11324 net.cpp:84] Creating Layer fire9/relu_squeeze1x1
I1128 14:26:21.763912 11324 net.cpp:406] fire9/relu_squeeze1x1 <- fire9/squeeze1x1
I1128 14:26:21.763919 11324 net.cpp:367] fire9/relu_squeeze1x1 -> fire9/squeeze1x1 (in-place)
I1128 14:26:21.763926 11324 net.cpp:122] Setting up fire9/relu_squeeze1x1
I1128 14:26:21.763931 11324 net.cpp:129] Top shape: 10 64 14 14 (125440)
I1128 14:26:21.763934 11324 net.cpp:137] Memory required for data: 290328120
I1128 14:26:21.763937 11324 layer_factory.hpp:77] Creating layer fire9/squeeze1x1_fire9/relu_squeeze1x1_0_split
I1128 14:26:21.763967 11324 net.cpp:84] Creating Layer fire9/squeeze1x1_fire9/relu_squeeze1x1_0_split
I1128 14:26:21.763973 11324 net.cpp:406] fire9/squeeze1x1_fire9/relu_squeeze1x1_0_split <- fire9/squeeze1x1
I1128 14:26:21.763980 11324 net.cpp:380] fire9/squeeze1x1_fire9/relu_squeeze1x1_0_split -> fire9/squeeze1x1_fire9/relu_squeeze1x1_0_split_0
I1128 14:26:21.763988 11324 net.cpp:380] fire9/squeeze1x1_fire9/relu_squeeze1x1_0_split -> fire9/squeeze1x1_fire9/relu_squeeze1x1_0_split_1
I1128 14:26:21.763994 11324 net.cpp:122] Setting up fire9/squeeze1x1_fire9/relu_squeeze1x1_0_split
I1128 14:26:21.764003 11324 net.cpp:129] Top shape: 10 64 14 14 (125440)
I1128 14:26:21.764006 11324 net.cpp:129] Top shape: 10 64 14 14 (125440)
I1128 14:26:21.764027 11324 net.cpp:137] Memory required for data: 291331640
I1128 14:26:21.764032 11324 layer_factory.hpp:77] Creating layer fire9/expand1x1
I1128 14:26:21.764040 11324 net.cpp:84] Creating Layer fire9/expand1x1
I1128 14:26:21.764045 11324 net.cpp:406] fire9/expand1x1 <- fire9/squeeze1x1_fire9/relu_squeeze1x1_0_split_0
I1128 14:26:21.764055 11324 net.cpp:380] fire9/expand1x1 -> fire9/expand1x1
I1128 14:26:21.764194 11324 net.cpp:122] Setting up fire9/expand1x1
I1128 14:26:21.764201 11324 net.cpp:129] Top shape: 10 256 14 14 (501760)
I1128 14:26:21.764204 11324 net.cpp:137] Memory required for data: 293338680
I1128 14:26:21.764210 11324 layer_factory.hpp:77] Creating layer fire9/relu_expand1x1
I1128 14:26:21.764217 11324 net.cpp:84] Creating Layer fire9/relu_expand1x1
I1128 14:26:21.764221 11324 net.cpp:406] fire9/relu_expand1x1 <- fire9/expand1x1
I1128 14:26:21.764227 11324 net.cpp:367] fire9/relu_expand1x1 -> fire9/expand1x1 (in-place)
I1128 14:26:21.764232 11324 net.cpp:122] Setting up fire9/relu_expand1x1
I1128 14:26:21.764237 11324 net.cpp:129] Top shape: 10 256 14 14 (501760)
I1128 14:26:21.764240 11324 net.cpp:137] Memory required for data: 295345720
I1128 14:26:21.764245 11324 layer_factory.hpp:77] Creating layer fire9/expand3x3
I1128 14:26:21.764253 11324 net.cpp:84] Creating Layer fire9/expand3x3
I1128 14:26:21.764257 11324 net.cpp:406] fire9/expand3x3 <- fire9/squeeze1x1_fire9/relu_squeeze1x1_0_split_1
I1128 14:26:21.764262 11324 net.cpp:380] fire9/expand3x3 -> fire9/expand3x3
I1128 14:26:21.765493 11324 net.cpp:122] Setting up fire9/expand3x3
I1128 14:26:21.765506 11324 net.cpp:129] Top shape: 10 256 14 14 (501760)
I1128 14:26:21.765511 11324 net.cpp:137] Memory required for data: 297352760
I1128 14:26:21.765516 11324 layer_factory.hpp:77] Creating layer fire9/relu_expand3x3
I1128 14:26:21.765534 11324 net.cpp:84] Creating Layer fire9/relu_expand3x3
I1128 14:26:21.765539 11324 net.cpp:406] fire9/relu_expand3x3 <- fire9/expand3x3
I1128 14:26:21.765545 11324 net.cpp:367] fire9/relu_expand3x3 -> fire9/expand3x3 (in-place)
I1128 14:26:21.765552 11324 net.cpp:122] Setting up fire9/relu_expand3x3
I1128 14:26:21.765557 11324 net.cpp:129] Top shape: 10 256 14 14 (501760)
I1128 14:26:21.765559 11324 net.cpp:137] Memory required for data: 299359800
I1128 14:26:21.765563 11324 layer_factory.hpp:77] Creating layer fire9/concat
I1128 14:26:21.765568 11324 net.cpp:84] Creating Layer fire9/concat
I1128 14:26:21.765573 11324 net.cpp:406] fire9/concat <- fire9/expand1x1
I1128 14:26:21.765579 11324 net.cpp:406] fire9/concat <- fire9/expand3x3
I1128 14:26:21.765584 11324 net.cpp:380] fire9/concat -> fire9/concat
I1128 14:26:21.765591 11324 net.cpp:122] Setting up fire9/concat
I1128 14:26:21.765597 11324 net.cpp:129] Top shape: 10 512 14 14 (1003520)
I1128 14:26:21.765600 11324 net.cpp:137] Memory required for data: 303373880
I1128 14:26:21.765604 11324 layer_factory.hpp:77] Creating layer drop9
I1128 14:26:21.765614 11324 net.cpp:84] Creating Layer drop9
I1128 14:26:21.765619 11324 net.cpp:406] drop9 <- fire9/concat
I1128 14:26:21.765625 11324 net.cpp:367] drop9 -> fire9/concat (in-place)
I1128 14:26:21.765632 11324 net.cpp:122] Setting up drop9
I1128 14:26:21.765637 11324 net.cpp:129] Top shape: 10 512 14 14 (1003520)
I1128 14:26:21.765641 11324 net.cpp:137] Memory required for data: 307387960
I1128 14:26:21.765645 11324 layer_factory.hpp:77] Creating layer conv10
I1128 14:26:21.765655 11324 net.cpp:84] Creating Layer conv10
I1128 14:26:21.765658 11324 net.cpp:406] conv10 <- fire9/concat
I1128 14:26:21.765663 11324 net.cpp:380] conv10 -> conv10
I1128 14:26:21.765748 11324 net.cpp:122] Setting up conv10
I1128 14:26:21.765754 11324 net.cpp:129] Top shape: 10 4 14 14 (7840)
I1128 14:26:21.765758 11324 net.cpp:137] Memory required for data: 307419320
I1128 14:26:21.765763 11324 layer_factory.hpp:77] Creating layer relu_conv10
I1128 14:26:21.765769 11324 net.cpp:84] Creating Layer relu_conv10
I1128 14:26:21.765774 11324 net.cpp:406] relu_conv10 <- conv10
I1128 14:26:21.765779 11324 net.cpp:367] relu_conv10 -> conv10 (in-place)
I1128 14:26:21.765792 11324 net.cpp:122] Setting up relu_conv10
I1128 14:26:21.765797 11324 net.cpp:129] Top shape: 10 4 14 14 (7840)
I1128 14:26:21.765800 11324 net.cpp:137] Memory required for data: 307450680
I1128 14:26:21.765805 11324 layer_factory.hpp:77] Creating layer pool10
I1128 14:26:21.765810 11324 net.cpp:84] Creating Layer pool10
I1128 14:26:21.765815 11324 net.cpp:406] pool10 <- conv10
I1128 14:26:21.765822 11324 net.cpp:380] pool10 -> pool10
I1128 14:26:21.765830 11324 net.cpp:122] Setting up pool10
I1128 14:26:21.765836 11324 net.cpp:129] Top shape: 10 4 1 1 (40)
I1128 14:26:21.765838 11324 net.cpp:137] Memory required for data: 307450840
I1128 14:26:21.765841 11324 layer_factory.hpp:77] Creating layer prob
I1128 14:26:21.765847 11324 net.cpp:84] Creating Layer prob
I1128 14:26:21.765851 11324 net.cpp:406] prob <- pool10
I1128 14:26:21.765864 11324 net.cpp:380] prob -> prob
I1128 14:26:21.765875 11324 net.cpp:122] Setting up prob
I1128 14:26:21.765893 11324 net.cpp:129] Top shape: 10 4 1 1 (40)
I1128 14:26:21.765898 11324 net.cpp:137] Memory required for data: 307451000
I1128 14:26:21.765902 11324 net.cpp:200] prob does not need backward computation.
I1128 14:26:21.765905 11324 net.cpp:200] pool10 does not need backward computation.
I1128 14:26:21.765909 11324 net.cpp:200] relu_conv10 does not need backward computation.
I1128 14:26:21.765913 11324 net.cpp:200] conv10 does not need backward computation.
…
[04/Dec/2017 03:47:09] "POST /routerClass HTTP/1.0" 200 1212
[04/Dec/2017 03:47:15] "POST /routerClass HTTP/1.0" 200 1212
[04/Dec/2017 03:47:21] "POST /routerClass HTTP/1.0" 200 1212
[04/Dec/2017 03:47:46] "POST /routerClass HTTP/1.0" 200 1212
WARNING: Logging before InitGoogleLogging() is written to STDERR
I1204 04:01:28.410614 26720 net.cpp:51] Initializing net from parameters: 
name: "AlexNet"
state {
  phase: TEST
  level: 0
}
layer {
  name: "data"
  type: "Input"
  top: "data"
  input_param {
    shape {
      dim: 1
      dim: 3
      dim: 227
      dim: 227
    }
  }
}
layer {
  name: "conv1"
  type: "Convolution"
  bottom: "data"
  top: "conv1"
  param {
    lr_mult: 1
    decay_mult: 1
  }
  param {
    lr_mult: 2
    decay_mult: 0
  }
  convolution_param {
    num_output: 96
    kernel_size: 11
    stride: 4
  }
}
layer {
  name: "relu1"
  type: "ReLU"
  bottom: "conv1"
  top: "conv1"
}
layer {
  name: "norm1"
  type: "LRN"
  bottom: "conv1"
  top: "norm1"
  lrn_param {
    local_size: 5
    alpha: 0.0001
    beta: 0.75
  }
}
layer {
  name: "pool1"
  type: "Pooling"
  bottom: "norm1"
  top: "pool1"
  pooling_param {
    pool: MAX
    kernel_size: 3
    stride: 2
  }
}
layer {
  name: "conv2"
  type: "Convolution"
  bottom: "pool1"
  top: "conv2"
  param {
    lr_mult: 1
    decay_mult: 1
  }
  param {
    lr_mult: 2
    decay_mult: 0
  }
  convolution_param {
    num_output: 256
    pad: 2
    kernel_size: 5
    group: 2
  }
}
layer {
  name: "relu2"
  type: "ReLU"
  bottom: "conv2"
  top: "conv2"
}
layer {
  name: "norm2"
  type: "LRN"
  bottom: "conv2"
  top: "norm2"
  lrn_param {
    local_size: 5
    alpha: 0.0001
    beta: 0.75
  }
}
layer {
  name: "pool2"
  type: "Pooling"
  bottom: "norm2"
  top: "pool2"
  pooling_param {
    pool: MAX
    kernel_size: 3
    stride: 2
  }
}
layer {
  name: "conv3"
  type: "Convolution"
  bottom: "pool2"
  top: "conv3"
  param {
    lr_mult: 1
    decay_mult: 1
  }
  param {
    lr_mult: 2
    decay_mult: 0
  }
  convolution_param {
    num_output: 384
    pad: 1
    kernel_size: 3
  }
}
layer {
  name: "relu3"
  type: "ReLU"
  bottom: "conv3"
  top: "conv3"
}
layer {
  name: "conv4"
  type: "Convolution"
  bottom: "conv3"
  top: "conv4"
  param {
    lr_mult: 1
    decay_mult: 1
  }
  param {
    lr_mult: 2
    decay_mult: 0
  }
  convolution_param {
    num_output: 384
    pad: 1
    kernel_size: 3
    group: 2
  }
}
layer {
  name: "relu4"
  type: "ReLU"
  bottom: "conv4"
  top: "conv4"
}
layer {
  name: "conv5"
  type: "Convolution"
  bottom: "conv4"
  top: "conv5"
  param {
    lr_mult: 1
    decay_mult: 1
  }
  param {
    lr_mult: 2
    decay_mult: 0
  }
  convolution_param {
    num_output: 256
    pad: 1
    kernel_size: 3
    group: 2
  }
}
layer {
  name: "relu5"
  type: "ReLU"
  bottom: "conv5"
  top: "conv5"
}
layer {
  name: "pool5"
  type: "Pooling"
  bottom: "conv5"
  top: "pool5"
  pooling_param {
    pool: MAX
    kernel_size: 3
    stride: 2
  }
}
layer {
  name: "fc6"
  type: "InnerProduct"
  bottom: "pool5"
  top: "fc6"
  param {
    lr_mult: 1
    decay_mult: 1
  }
  param {
    lr_mult: 2
    decay_mult: 0
  }
  inner_product_param {
    num_output: 4096
  }
}
layer {
  name: "relu6"
  type: "ReLU"
  bottom: "fc6"
  top: "fc6"
}
layer {
  name: "drop6"
  type: "Dropout"
  bottom: "fc6"
  top: "fc6"
  dropout_param {
    dropout_ratio: 0.5
  }
}
layer {
  name: "fc7"
  type: "InnerProduct"
  bottom: "fc6"
  top: "fc7"
  param {
    lr_mult: 1
    decay_mult: 1
  }
  param {
    lr_mult: 2
    decay_mult: 0
  }
  inner_product_param {
    num_output: 4096
  }
}
layer {
  name: "relu7"
  type: "ReLU"
  bottom: "fc7"
  top: "fc7"
}
layer {
  name: "drop7"
  type: "Dropout"
  bottom: "fc7"
  top: "fc7"
  dropout_param {
    dropout_ratio: 0.5
  }
}
layer {
  name: "fc8"
  type: "InnerProduct"
  bottom: "fc7"
  top: "fc8"
  param {
    lr_mult: 1
    decay_mult: 1
  }
  param {
    lr_mult: 2
    decay_mult: 0
  }
  inner_product_param {
    num_output: 2
  }
}
layer {
  name: "prob"
  type: "Softmax"
  bottom: "fc8"
  top: "prob"
}
I1204 04:01:28.410794 26720 layer_factory.hpp:77] Creating layer data
I1204 04:01:28.410825 26720 net.cpp:84] Creating Layer data
I1204 04:01:28.410841 26720 net.cpp:380] data -> data
I1204 04:01:28.410881 26720 net.cpp:122] Setting up data
I1204 04:01:28.410902 26720 net.cpp:129] Top shape: 1 3 227 227 (154587)
I1204 04:01:28.410907 26720 net.cpp:137] Memory required for data: 618348
I1204 04:01:28.410912 26720 layer_factory.hpp:77] Creating layer conv1
I1204 04:01:28.410924 26720 net.cpp:84] Creating Layer conv1
I1204 04:01:28.410929 26720 net.cpp:406] conv1 <- data
I1204 04:01:28.410936 26720 net.cpp:380] conv1 -> conv1
I1204 04:01:28.411093 26720 net.cpp:122] Setting up conv1
I1204 04:01:28.411103 26720 net.cpp:129] Top shape: 1 96 55 55 (290400)
I1204 04:01:28.411108 26720 net.cpp:137] Memory required for data: 1779948
I1204 04:01:28.411121 26720 layer_factory.hpp:77] Creating layer relu1
I1204 04:01:28.411131 26720 net.cpp:84] Creating Layer relu1
I1204 04:01:28.411136 26720 net.cpp:406] relu1 <- conv1
I1204 04:01:28.411144 26720 net.cpp:367] relu1 -> conv1 (in-place)
I1204 04:01:28.411154 26720 net.cpp:122] Setting up relu1
I1204 04:01:28.411159 26720 net.cpp:129] Top shape: 1 96 55 55 (290400)
I1204 04:01:28.411162 26720 net.cpp:137] Memory required for data: 2941548
I1204 04:01:28.411166 26720 layer_factory.hpp:77] Creating layer norm1
I1204 04:01:28.411172 26720 net.cpp:84] Creating Layer norm1
I1204 04:01:28.411176 26720 net.cpp:406] norm1 <- conv1
I1204 04:01:28.411183 26720 net.cpp:380] norm1 -> norm1
I1204 04:01:28.411197 26720 net.cpp:122] Setting up norm1
I1204 04:01:28.411202 26720 net.cpp:129] Top shape: 1 96 55 55 (290400)
I1204 04:01:28.411206 26720 net.cpp:137] Memory required for data: 4103148
I1204 04:01:28.411209 26720 layer_factory.hpp:77] Creating layer pool1
I1204 04:01:28.411216 26720 net.cpp:84] Creating Layer pool1
I1204 04:01:28.411221 26720 net.cpp:406] pool1 <- norm1
I1204 04:01:28.411234 26720 net.cpp:380] pool1 -> pool1
I1204 04:01:28.411249 26720 net.cpp:122] Setting up pool1
I1204 04:01:28.411255 26720 net.cpp:129] Top shape: 1 96 27 27 (69984)
I1204 04:01:28.411259 26720 net.cpp:137] Memory required for data: 4383084
I1204 04:01:28.411262 26720 layer_factory.hpp:77] Creating layer conv2
I1204 04:01:28.411269 26720 net.cpp:84] Creating Layer conv2
I1204 04:01:28.411273 26720 net.cpp:406] conv2 <- pool1
I1204 04:01:28.411281 26720 net.cpp:380] conv2 -> conv2
I1204 04:01:28.412109 26720 net.cpp:122] Setting up conv2
I1204 04:01:28.412123 26720 net.cpp:129] Top shape: 1 256 27 27 (186624)
I1204 04:01:28.412127 26720 net.cpp:137] Memory required for data: 5129580
I1204 04:01:28.412137 26720 layer_factory.hpp:77] Creating layer relu2
I1204 04:01:28.412147 26720 net.cpp:84] Creating Layer relu2
I1204 04:01:28.412151 26720 net.cpp:406] relu2 <- conv2
I1204 04:01:28.412158 26720 net.cpp:367] relu2 -> conv2 (in-place)
I1204 04:01:28.412163 26720 net.cpp:122] Setting up relu2
I1204 04:01:28.412168 26720 net.cpp:129] Top shape: 1 256 27 27 (186624)
I1204 04:01:28.412173 26720 net.cpp:137] Memory required for data: 5876076
I1204 04:01:28.412175 26720 layer_factory.hpp:77] Creating layer norm2
I1204 04:01:28.412184 26720 net.cpp:84] Creating Layer norm2
I1204 04:01:28.412187 26720 net.cpp:406] norm2 <- conv2
I1204 04:01:28.412194 26720 net.cpp:380] norm2 -> norm2
I1204 04:01:28.412201 26720 net.cpp:122] Setting up norm2
I1204 04:01:28.412206 26720 net.cpp:129] Top shape: 1 256 27 27 (186624)
I1204 04:01:28.412209 26720 net.cpp:137] Memory required for data: 6622572
I1204 04:01:28.412214 26720 layer_factory.hpp:77] Creating layer pool2
I1204 04:01:28.412220 26720 net.cpp:84] Creating Layer pool2
I1204 04:01:28.412223 26720 net.cpp:406] pool2 <- norm2
I1204 04:01:28.412228 26720 net.cpp:380] pool2 -> pool2
I1204 04:01:28.412236 26720 net.cpp:122] Setting up pool2
I1204 04:01:28.412241 26720 net.cpp:129] Top shape: 1 256 13 13 (43264)
I1204 04:01:28.412245 26720 net.cpp:137] Memory required for data: 6795628
I1204 04:01:28.412248 26720 layer_factory.hpp:77] Creating layer conv3
I1204 04:01:28.412256 26720 net.cpp:84] Creating Layer conv3
I1204 04:01:28.412259 26720 net.cpp:406] conv3 <- pool2
I1204 04:01:28.412271 26720 net.cpp:380] conv3 -> conv3
I1204 04:01:28.414160 26720 net.cpp:122] Setting up conv3
I1204 04:01:28.414175 26720 net.cpp:129] Top shape: 1 384 13 13 (64896)
I1204 04:01:28.414178 26720 net.cpp:137] Memory required for data: 7055212
I1204 04:01:28.414187 26720 layer_factory.hpp:77] Creating layer relu3
I1204 04:01:28.414194 26720 net.cpp:84] Creating Layer relu3
I1204 04:01:28.414198 26720 net.cpp:406] relu3 <- conv3
I1204 04:01:28.414203 26720 net.cpp:367] relu3 -> conv3 (in-place)
I1204 04:01:28.414211 26720 net.cpp:122] Setting up relu3
I1204 04:01:28.414216 26720 net.cpp:129] Top shape: 1 384 13 13 (64896)
I1204 04:01:28.414218 26720 net.cpp:137] Memory required for data: 7314796
I1204 04:01:28.414222 26720 layer_factory.hpp:77] Creating layer conv4
I1204 04:01:28.414232 26720 net.cpp:84] Creating Layer conv4
I1204 04:01:28.414237 26720 net.cpp:406] conv4 <- conv3
I1204 04:01:28.414243 26720 net.cpp:380] conv4 -> conv4
I1204 04:01:28.415915 26720 net.cpp:122] Setting up conv4
I1204 04:01:28.415928 26720 net.cpp:129] Top shape: 1 384 13 13 (64896)
I1204 04:01:28.415932 26720 net.cpp:137] Memory required for data: 7574380
I1204 04:01:28.415940 26720 layer_factory.hpp:77] Creating layer relu4
I1204 04:01:28.415946 26720 net.cpp:84] Creating Layer relu4
I1204 04:01:28.415951 26720 net.cpp:406] relu4 <- conv4
I1204 04:01:28.415959 26720 net.cpp:367] relu4 -> conv4 (in-place)
I1204 04:01:28.415969 26720 net.cpp:122] Setting up relu4
I1204 04:01:28.415978 26720 net.cpp:129] Top shape: 1 384 13 13 (64896)
I1204 04:01:28.415985 26720 net.cpp:137] Memory required for data: 7833964
I1204 04:01:28.415992 26720 layer_factory.hpp:77] Creating layer conv5
I1204 04:01:28.416008 26720 net.cpp:84] Creating Layer conv5
I1204 04:01:28.416018 26720 net.cpp:406] conv5 <- conv4
I1204 04:01:28.416028 26720 net.cpp:380] conv5 -> conv5
I1204 04:01:28.417209 26720 net.cpp:122] Setting up conv5
I1204 04:01:28.417223 26720 net.cpp:129] Top shape: 1 256 13 13 (43264)
I1204 04:01:28.417227 26720 net.cpp:137] Memory required for data: 8007020
I1204 04:01:28.417237 26720 layer_factory.hpp:77] Creating layer relu5
I1204 04:01:28.417244 26720 net.cpp:84] Creating Layer relu5
I1204 04:01:28.417248 26720 net.cpp:406] relu5 <- conv5
I1204 04:01:28.417253 26720 net.cpp:367] relu5 -> conv5 (in-place)
I1204 04:01:28.417260 26720 net.cpp:122] Setting up relu5
I1204 04:01:28.417265 26720 net.cpp:129] Top shape: 1 256 13 13 (43264)
I1204 04:01:28.417268 26720 net.cpp:137] Memory required for data: 8180076
I1204 04:01:28.417273 26720 layer_factory.hpp:77] Creating layer pool5
I1204 04:01:28.417277 26720 net.cpp:84] Creating Layer pool5
I1204 04:01:28.417281 26720 net.cpp:406] pool5 <- conv5
I1204 04:01:28.417291 26720 net.cpp:380] pool5 -> pool5
I1204 04:01:28.417300 26720 net.cpp:122] Setting up pool5
I1204 04:01:28.417306 26720 net.cpp:129] Top shape: 1 256 6 6 (9216)
I1204 04:01:28.417310 26720 net.cpp:137] Memory required for data: 8216940
I1204 04:01:28.417313 26720 layer_factory.hpp:77] Creating layer fc6
I1204 04:01:28.417322 26720 net.cpp:84] Creating Layer fc6
I1204 04:01:28.417326 26720 net.cpp:406] fc6 <- pool5
I1204 04:01:28.417332 26720 net.cpp:380] fc6 -> fc6
I1204 04:01:28.493367 26720 net.cpp:122] Setting up fc6
I1204 04:01:28.493429 26720 net.cpp:129] Top shape: 1 4096 (4096)
I1204 04:01:28.493435 26720 net.cpp:137] Memory required for data: 8233324
I1204 04:01:28.493449 26720 layer_factory.hpp:77] Creating layer relu6
I1204 04:01:28.493465 26720 net.cpp:84] Creating Layer relu6
I1204 04:01:28.493472 26720 net.cpp:406] relu6 <- fc6
I1204 04:01:28.493484 26720 net.cpp:367] relu6 -> fc6 (in-place)
I1204 04:01:28.493496 26720 net.cpp:122] Setting up relu6
I1204 04:01:28.493502 26720 net.cpp:129] Top shape: 1 4096 (4096)
I1204 04:01:28.493506 26720 net.cpp:137] Memory required for data: 8249708
I1204 04:01:28.493511 26720 layer_factory.hpp:77] Creating layer drop6
I1204 04:01:28.493526 26720 net.cpp:84] Creating Layer drop6
I1204 04:01:28.493530 26720 net.cpp:406] drop6 <- fc6
I1204 04:01:28.493537 26720 net.cpp:367] drop6 -> fc6 (in-place)
I1204 04:01:28.493547 26720 net.cpp:122] Setting up drop6
I1204 04:01:28.493552 26720 net.cpp:129] Top shape: 1 4096 (4096)
I1204 04:01:28.493556 26720 net.cpp:137] Memory required for data: 8266092
I1204 04:01:28.493561 26720 layer_factory.hpp:77] Creating layer fc7
I1204 04:01:28.493571 26720 net.cpp:84] Creating Layer fc7
I1204 04:01:28.493574 26720 net.cpp:406] fc7 <- fc6
I1204 04:01:28.493582 26720 net.cpp:380] fc7 -> fc7
I1204 04:01:28.528319 26720 net.cpp:122] Setting up fc7
I1204 04:01:28.528386 26720 net.cpp:129] Top shape: 1 4096 (4096)
I1204 04:01:28.528394 26720 net.cpp:137] Memory required for data: 8282476
I1204 04:01:28.528409 26720 layer_factory.hpp:77] Creating layer relu7
I1204 04:01:28.528424 26720 net.cpp:84] Creating Layer relu7
I1204 04:01:28.528430 26720 net.cpp:406] relu7 <- fc7
I1204 04:01:28.528440 26720 net.cpp:367] relu7 -> fc7 (in-place)
I1204 04:01:28.528452 26720 net.cpp:122] Setting up relu7
I1204 04:01:28.528458 26720 net.cpp:129] Top shape: 1 4096 (4096)
I1204 04:01:28.528462 26720 net.cpp:137] Memory required for data: 8298860
I1204 04:01:28.528466 26720 layer_factory.hpp:77] Creating layer drop7
I1204 04:01:28.528479 26720 net.cpp:84] Creating Layer drop7
I1204 04:01:28.528484 26720 net.cpp:406] drop7 <- fc7
I1204 04:01:28.528491 26720 net.cpp:367] drop7 -> fc7 (in-place)
I1204 04:01:28.528498 26720 net.cpp:122] Setting up drop7
I1204 04:01:28.528504 26720 net.cpp:129] Top shape: 1 4096 (4096)
I1204 04:01:28.528508 26720 net.cpp:137] Memory required for data: 8315244
I1204 04:01:28.528512 26720 layer_factory.hpp:77] Creating layer fc8
I1204 04:01:28.528522 26720 net.cpp:84] Creating Layer fc8
I1204 04:01:28.528527 26720 net.cpp:406] fc8 <- fc7
I1204 04:01:28.528537 26720 net.cpp:380] fc8 -> fc8
I1204 04:01:28.528570 26720 net.cpp:122] Setting up fc8
I1204 04:01:28.528596 26720 net.cpp:129] Top shape: 1 2 (2)
I1204 04:01:28.528600 26720 net.cpp:137] Memory required for data: 8315252
I1204 04:01:28.528607 26720 layer_factory.hpp:77] Creating layer prob
I1204 04:01:28.528623 26720 net.cpp:84] Creating Layer prob
I1204 04:01:28.528628 26720 net.cpp:406] prob <- fc8
I1204 04:01:28.528633 26720 net.cpp:380] prob -> prob
I1204 04:01:28.528648 26720 net.cpp:122] Setting up prob
I1204 04:01:28.528654 26720 net.cpp:129] Top shape: 1 2 (2)
I1204 04:01:28.528657 26720 net.cpp:137] Memory required for data: 8315260
I1204 04:01:28.528661 26720 net.cpp:200] prob does not need backward computation.
I1204 04:01:28.528666 26720 net.cpp:200] fc8 does not need backward computation.
I1204 04:01:28.528669 26720 net.cpp:200] drop7 does not need backward computation.
I1204 04:01:28.528672 26720 net.cpp:200] relu7 does not need backward computation.
…
